Pytorchlearn/module_net.pth (torch_old, 885 bytes, 3 tensors)

layer1.weight f4 [4, 2]
000000 2b 85 79 41 2f dc 8b 41 a2 c0 29 be d1 b5 22 c1
       15.595012 17.482512 -0.1657739 -10.169389
000010 7f a9 76 41 d4 1c 90 c1 f9 c2 57 c0 0a 2a 05 c1
       15.416381 -18.014076 -3.3712752 -8.322763

layer1.bias f4 [4]
000000 66 31 b8 3d f2 67 13 be 7e fa 97 3d 1a ce 66 bf
       0.08993797 -0.1439512 0.074208245 -0.90158236

layer3.weight f4 [1, 4]
000000 c8 aa ae c0 e2 26 20 c1 3d ab ae 40 0b 32 61 3f
       -5.4583473 -10.009493 5.458403 0.87966985
