Pytorchlearn/save_seq_net.pth (torch_old, 7225 bytes, 3 tensors)

weight f4 [4, 2]
9.427357 -2.9480157 -10.436642 -12.251793 -0.1030298 9.527111 8.844952 -9.747002
00000000: 74d6 1641 4aac 3cc0 7cfc 26c1 5807 44c1
00000010: 4a01 d3bd 0c6f 1841 ec84 0d41 b8f3 1bc1

bias f4 [4]
0.38046277 -0.053742547 0.043998253 0.06353053
00000000: 04cc c23e 2521 5cbd 8337 343d 4b1c 823d

weight f4 [1, 4]
-3.325196 5.9105444 11.213745 9.879089
00000000: 03d0 54c0 2e23 bd40 806b 3341 c010 1e41
